modelzoo/ESPCN/ESPCN_2X_16_16_4.tflite (tflite, 15332 bytes, 6 tensors)

model/conv_2/BiasAdd/ReadVariableOp/resource f4 [16]
000000 1e c0 fd 3b 2c 04 61 bb 53 6d d3 b9 fb 61 9a 3b
       0.0077438494 -0.0034334762 -0.0004032651 0.004711387
000010 7c 1c 16 3c 73 1f 55 bb e3 b9 88 bb 3e 12 88 bb
       0.009162065 -0.0032519966 -0.00417255 -0.0041525653
000020 0a 6b 88 bb a1 73 88 bb e3 5a 10 3c 72 0d 0b 3c
       -0.0041631507 -0.0041641747 0.008810732 0.008487092
000030 ab 48 5a bb 15 a5 88 bb 26 24 0e 3c 10 f8 c7 ba
       -0.0033307474 -0.00417007 0.008675611 -0.0015256424

model/conv_1/BiasAdd/ReadVariableOp/resource f4 [16]
000000 92 6a b6 3b 2e 37 d8 3b f3 30 d8 3b a6 c0 62 3a
       0.0055669034 0.006598375 0.006597632 0.00086499227
000010 42 8e c0 3b 83 4c c5 3b d2 97 4a bb 4b f8 e7 3b
       0.0058763335 0.006021084 -0.0030913246 0.0070791594
000020 7f f4 5b b8 96 2a 3e ba fa 12 79 ba fa fb 39 bb
       -5.2441374e-05 -0.00072542706 -0.0009501424 -0.002837895
000030 77 ca ca 3b b3 6d bf 3a 7e eb bf 3b 6c 93 18 bb
       0.0061886865 0.0014604836 0.0058569303 -0.002328123

model/conv_1/Conv2D f4 [16, 5, 5, 1]
000000 0a a0 d6 3b af 0b c3 3b f8 42 fb 3b 78 a0 9d 3b
       0.00654984 0.0059523205 0.0076678954 0.004810389
000010 45 45 c1 3b 60 b6 bb 3b 03 9d d6 3b 41 5f 00 3c
       0.00589815 0.005728528 0.006549479 0.00783521
000020 56 20 af 3b a0 91 a7 3b 55 aa a0 3b 4d 78 a8 3b
       0.005344431 0.0051137954 0.0049031177 0.005141294
000030 f0 41 82 3b a8 ab c5 3b 23 18 d4 3b cd 48 c9 3b
       0.0039751455 0.006032426 0.006472604 0.0061427117
000040 16 7f be 3b e5 22 bc 3b 40 92 b0 3b 5e d5 80 3b
       0.0058134897 0.0057414644 0.005388528 0.0039316854
000050 96 73 bd 3b ac dd a9 3b 4f 44 af 3b a2 a3 ba 3b
       0.005781601 0.005183896 0.005348719 0.005695776
000060 5c 37 c6 3b 99 38 01 3c e9 82 0c 3c 1d 9e e5 3b
       0.00604908 0.007887029 0.008576133 0.007007374
000070 a2 ac f2 3b 51 65 d6 3b 61 66 e4 3b 2a 66 b7 3b
       0.0074058333 0.0065428396 0.0069702123 0.0055968957
000080 4e f8 8e 3b f1 f2 c7 3b 80 60 cf 3b 42 11 d3 3b
       0.0043630963 0.006101959 0.0063286424 0.0064412663
000090 52 f8 e7 3b 4c f8 fd 3b 51 5a d8 3b 5c d9 c1 3b
       0.0070791626 0.0077505466 0.0066025634 0.005915804
0000a0 36 71 e0 3b bd 4c f1 3b d5 94 db 3b a4 18 df 3b
       0.0068494333 0.0073638842 0.006701092 0.0068083573
0000b0 66 80 01 3c dc f3 c6 3b 1a 48 c2 3b ba d1 c7 3b
       0.007904148 0.006071551 0.0059290053 0.0060979994
0000c0 42 9d e7 3b 84 1f d9 3b 38 d3 eb 3b 60 70 f2 3b
       0.007068307 0.0066260714 0.00719681 0.00739865
0000d0 ee c5 ed 3b 42 4b c1 3b 36 c6 cd 3b 78 a5 f7 3b
       0.007256261 0.005898864 0.006279732 0.007557567
0000e0 8a 18 e6 3b c4 c5 f3 3b 13 61 df 3b 9c be a9 3b
       0.0070219683 0.007439347 0.006816992 0.005180193
0000f0 6e 9c d3 3b 4b cd 02 3c 0f cb f6 3b c4 16 03 3c
       0.006457857 0.007983516 0.0075315307 0.008001033
000100 8b 83 e4 3b 98 7d de 3b 53 df eb 3b 99 36 00 3c
       0.006973689 0.0067898743 0.007198253 0.007825517
000110 73 b9 f1 3b 37 78 e8 3b c6 5a d5 3b 4c ac f6 3b
       0.0073768436 0.007094409 0.006511065 0.0075278636
000120 74 01 cc 3b 5c f2 fe 3b 1a e1 ee 3b 5e dc 48 3b
       0.006225759 0.0077803563 0.007290018 0.0030648927
000130 cb 3d 87 ba a0 76 5e 3a 53 8a c9 b9 92 f7 3d 3a
       -0.0010318098 0.00084863044 -0.00038440767 0.00072466687
000140 50 8d aa b9 fa be 52 b9 8d 51 43 3a 80 9e fe 36
       -0.00032530213 -0.00020098305 0.00074508117 7.5882417e-06
000150 05 56 0b ba 89 f1 27 3b e0 68 70 ba 3f 1e 84 39
       -0.0005315247 0.0025626144 -0.0009170901 0.00025199537
000160 14 23 cf 39 e8 ba e5 39 14 57 4d ba da a7 0c b9
       0.00039508252 0.0004381754 -0.0007833105 -0.0001341397
000170 25 e8 a9 3a 13 c0 68 ba bc 1c ca ba a2 8d 3a ba
       0.0012962861 -0.0008878719 -0.001541994 -0.0007116442
000180 2e a7 42 3a 29 5e 8e b9 92 19 9b 3a 48 88 15 3a
       0.00074254244 -0.00027154505 0.0011833182 0.00057042064
000190 92 56 c3 3b 5c b4 99 3b 76 a4 cb 3b 96 0d d2 3b
       0.0059612477 0.00469069 0.0062146736 0.006410311
0001a0 52 e3 d7 3b 03 b3 f1 3b 49 9f 8b 3b 7b b3 a2 3b
       0.006588378 0.007376076 0.0042609316 0.0049652434
0001b0 9e 32 91 3b cc 36 9e 3b ab 78 a1 3b e7 f8 a0 3b
       0.004431083 0.0048283096 0.004927715 0.004912484
0001c0 76 cd c4 3b 16 da b4 3b e5 6a c2 3b f0 69 d6 3b
       0.006005938 0.005519162 0.005933153 0.0065433905
0001d0 11 ea af 3b 54 9a a4 3b 31 a8 92 3b aa 4a fc 3b
       0.005368479 0.00502328 0.0044756164 0.0076993303
0001e0 d4 a3 58 3b d1 38 8b 3b da ce ad 3b f9 65 8e 3b
       0.0033056634 0.0042487164 0.0053041996 0.004345652
0001f0 27 e3 f2 3b 3f 87 e9 3b 25 b3 ee 3b 36 c2 98 3b
       0.0074123326 0.0071267183 0.0072845393 0.0046618236
000200 57 57 c3 3b d2 04 e9 3b 52 6e d2 3b da 4b ca 3b
       0.0059613395 0.0071111703 0.0064218426 0.006173593
000210 6e e9 ca 3b 68 82 a1 3b 10 b1 9b 3b e8 42 b6 3b
       0.006192378 0.0049288757 0.004751332 0.005562175
000220 40 19 87 3b 08 29 c6 3b 81 5d f2 3b e1 03 cc 3b
       0.004122883 0.006047372 0.0073964004 0.0062260483
000230 c4 d5 b3 3b fb 4b b2 3b 92 da e3 3b dc 3e f1 3b
       0.0054881293 0.0054411865 0.006953546 0.0073622297
000240 8c a3 cc 3b 21 dd 9c 3b 36 fd b0 3b fd 1a 96 3b
       0.0062450822 0.004787103 0.005401279 0.004580854
000250 d0 0b e5 3b ba f7 bd 3b 95 65 44 bb 92 9c 94 ba
       0.0069899336 0.0057973536 -0.0029967774 -0.0011338165
000260 5e 8b c7 ba a4 4a 51 bb 8e 06 12 bb 2c 0e 6e ba
       -0.001522403 -0.0031935358 -0.002228174 -0.0009081091
000270 3f 7e dc ba b0 17 11 bb d4 95 32 bb 32 52 42 bb
       -0.0016822292 -0.0022139363 -0.002724995 -0.0029651043
000280 32 3c e1 ba 4d 9c 9d ba 27 d9 9c ba f4 01 9f bb
       -0.0017184077 -0.0012024731 -0.0011966572 -0.0048525278
000290 d5 cc 78 bb 32 33 80 bb 5a 35 2b bb d6 3a 47 bb
       -0.0037963886 -0.003912353 -0.002612433 -0.003040006
0002a0 05 bf cd ba 6e c2 7e ba 16 b4 51 bb b1 41 17 bb
       -0.0015697187 -0.00097183033 -0.0031998209 -0.0023079927
0002b0 6b 75 6e bb e0 93 64 bb c4 15 6a bb 21 79 be 3b
       -0.0036385905 -0.003487818 -0.003571854 0.0058127795
0002c0 f8 e9 15 3c fb e9 dc 3b 5a ee d5 3b e7 f8 ca 3b
       0.009150021 0.00674176 0.006528658 0.0061942223
0002d0 ff c6 eb 3b 3a 2c 0d 3c 60 09 f7 3b 98 7b c1 3b
       0.007195353 0.008616501 0.0075389594 0.005904626
0002e0 a0 58 00 3c f6 d6 f7 3b 6f 74 a3 3b 4f de c1 3b
       0.00783363 0.007563467 0.004988245 0.005916394
0002f0 c9 ee f5 3b 3c 79 da 3b cf df c6 3b 0f 64 c7 3b
       0.007505272 0.0066672843 0.0060691605 0.006084926
000300 35 6f dd 3b 17 b9 e5 3b 0a 6a fd 3b 8d 67 f5 3b
       0.0067576417 0.00701059 0.007733588 0.007489151
000310 a6 6b 12 3c 98 bd e1 3b 48 ef bb 3b 80 4b f2 3b
       0.008936798 0.0068890564 0.0057353117 0.007394254
000320 5c a3 54 3a 44 28 e6 38 d9 ad f7 b9 5d f9 dc ba
       0.00081115006 0.00010974755 -0.00047241038 -0.0016858984
000330 b0 4f d2 3a f7 76 dd ba 8e 30 78 37 e4 42 18 ba
       0.0016045477 -0.0016896416 1.4793257e-05 -0.00058083073
000340 12 a2 08 ba c7 1c ac ba e6 77 42 ba 2d 1b 83 39
       -0.00052121386 -0.0013131135 -0.0007418379 0.00025006515
000350 e4 1e 8d ba ca 9a 90 ba c7 7b 8e 3a 24 30 c6 b9
       -0.0010766652 -0.0011032459 0.0010870629 -0.0003780137
000360 96 2b 41 b9 c3 fa 78 ba 98 d8 66 b9 c5 53 47 ba
       -0.00018422151 -0.00094978156 -0.00022015197 -0.000760373
000370 9c fe 9e b9 b6 37 d1 39 ed 94 a0 ba af cc 36 ba
       -0.00030325807 0.00039905094 -0.0012251415 -0.0006973249
000380 98 65 25 39 a3 cb 3a ba a8 b8 82 39 0b d4 d4 ba
       0.00015773473 -0.0007125681 0.00024933112 -0.001623751
000390 05 b0 ce ba f7 b9 91 3a 1b 5c 87 ba 93 73 89 38
       -0.0015769011 0.0011118044 -0.0010327132 6.5541964e-05
0003a0 dd 6f 64 ba 12 8b d1 ba b7 5a 88 39 1d 48 8d ba
       -0.00087141787 -0.0015986881 0.0002600753 -0.0010778938
0003b0 14 4d a5 ba 5b d6 f7 ba a4 5d 31 ba df aa 04 38
       -0.0012611472 -0.0018908487 -0.00067659677 3.163039e-05
0003c0 96 d6 d7 39 d5 a4 0b 3a 67 ec 09 ba 33 06 8b 3a
       0.00041167875 0.0005326991 -0.0005261362 0.0010606706
0003d0 9f a3 d3 38 64 eb 5c b9 9f 8f b4 ba c3 10 4d 39
       0.00010091741 -0.00021068525 -0.0013775713 0.00019556568
0003e0 70 80 60 b6 7e 51 81 ba 60 77 95 ba ae 8b c7 38
       -3.3453362e-06 -0.0009866206 -0.0011403374 9.515077e-05
0003f0 74 f1 bf ba 6c b2 67 b8 5d 23 93 ba bd e0 a9 ba
       -0.0014644102 -5.524086e-05 -0.0011225749 -0.0012960654

model/conv_2/Conv2D f4 [16, 3, 3, 16]
000000 8a cd b7 3b bf 11 a3 3b 7e 68 e9 3b cd 46 52 ba
       0.005609219 0.0049764807 0.007123052 -0.00080214144
000010 2c 68 df 3b 33 5e b3 3b d6 95 55 3a c9 15 bd 3b
       0.006817838 0.005473876 0.00081476325 0.0057704193
000020 e0 5d 61 3a dd a4 a7 ba bc fa bd ba 82 65 00 3a
       0.00085970573 -0.0012790222 -0.001449428 0.00048979383
000030 1a 98 ca 3b 1e ae f9 b9 05 40 ae 3b 66 5f 06 b9
       0.0061826827 -0.00047622708 0.0053176903 -0.00012814775
000040 0c ba d4 3b cb fc ea 3b b5 b5 8f 3b ff 86 85 3a
       0.006491905 0.0071712486 0.004385675 0.0010187327
000050 8a f9 b9 3b 6d de 9a 3b fb 23 af ba d0 2e e4 3b
       0.0056754993 0.0047262223 -0.0013362163 0.0069635883
000060 76 5a 58 ba a4 a6 d9 39 fc 98 03 ba 42 8a 96 ba
       -0.0008253226 0.00041513622 -0.000502005 -0.0011485296
000070 b7 46 f5 3b 81 a2 3a 3b 6e f2 94 3b 1d 60 df 3a
       0.0074852365 0.0028478208 0.0045455014 0.0017042194
000080 42 50 d6 3b 06 b4 87 3b 27 a9 d4 3b 4d 25 54 39
       0.006540329 0.0041413335 0.006489891 0.00020231791
000090 56 1a c6 3b 9b ca 9f 3b ec c8 62 3a c9 70 9f 3b
       0.00604562 0.0048764474 0.00086511555 0.00486574
0000a0 6c c4 8a b9 3f be 47 ba 90 30 82 3a fb d1 36 39
       -0.00026467757 -0.00076195964 0.0009932686 0.00017435096
0000b0 11 2b b2 3b 5a 5d 25 3b 5b 27 ea 3b 0b d6 a1 39
       0.005437263 0.0025232644 0.007145805 0.00030867787
0000c0 19 f2 af 3b 11 22 e3 3b 87 fb dc 3b 74 5c 9d 3a
       0.0053694365 0.0069315513 0.0067438516 0.0012005703
0000d0 71 41 a6 3b ca c9 cb 3b fd 93 28 ba b9 5f 97 3b
       0.005073719 0.0062191235 -0.00064307434 0.0046195653
0000e0 eb d1 6c ba 43 6d a6 ba dd 0f 93 3a c1 1b 2c ba
       -0.0009033966 -0.0012697357 0.0011219938 -0.0006565415
0000f0 82 ff bc 3b f8 77 66 b9 b9 14 87 3b f2 1e a8 b9
       0.0057677636 -0.00021979201 0.0041223434 -0.00032066513
000100 7d c1 8c 3b 14 ec a3 3b 1c ae f2 3b 64 6f 65 3a
       0.0042955265 0.005002508 0.0074060094 0.0008752255
000110 48 39 d2 3b 2e 94 d2 3b b7 b2 1e bb c4 bd b1 3b
       0.00641552 0.006426356 -0.002421541 0.005424233
000120 df 51 63 b8 6d d7 9f ba 05 44 13 39 1a de 3e 3a
       -5.4197266e-05 -0.0012194939 0.00014044352 0.00072810205
000130 86 b7 c6 3b 86 85 50 3a 54 9b a8 3b ab 80 89 3a
       0.006064358 0.0007954467 0.0051454697 0.0010490617
000140 4b 9a b0 3b 0d 4c 8c 3b f2 db a2 3b dd fc 30 b9
       0.005389487 0.004281527 0.004970067 -0.00016878867
000150 8e 00 c6 3b 79 48 c9 3b 0e 9c f0 39 23 9c d6 3b
       0.0060425466 0.0061426726 0.00045892637 0.0065493747
000160 d8 46 34 3a ea a5 01 bb 1f 34 83 ba c3 46 ea b9
       0.00068770116 -0.001978273 -0.001001004 -0.0004468468
000170 23 a1 c3 3b 1c 5d a2 3a 82 62 eb 3b 40 86 5b 39
       0.0059701367 0.0012387368 0.007183374 0.0002093548
000180 c2 42 a4 3b f0 77 07 3c 95 78 a1 3b 2c 2b 38 38
       0.005012841 0.008268341 0.0049277046 4.3909225e-05
000190 03 84 9a 3b 23 11 da 3b 02 47 ad 3a da b5 a6 3b
       0.004715444 0.006654875 0.0013220015 0.0050875964
0001a0 af f5 ff ba 28 1c 1f bb fa 44 0d b9 7b bb 83 ba
       -0.0019528175 -0.0024278257 -0.00013472504 -0.001005038
0001b0 e2 06 a5 3b 44 82 21 3a d0 5d c1 3b 1b 1b bd b9
       0.005036221 0.00061610737 0.005901076 -0.00036069084
0001c0 07 94 be 3b 9a 27 9c 3b b0 37 f3 3b c5 a8 b6 3a
       0.005815986 0.004765463 0.00742241 0.0013935795
0001d0 83 7b db 3b 41 8b d7 3b 6e d4 66 37 d5 5d b3 3b
       0.0066980734 0.0065778797 1.3758528e-05 0.005473832
0001e0 f0 b8 28 3a 70 42 ad b9 78 3c 77 ba f0 b7 c7 39
       0.0006436249 -0.0003304663 -0.0009431313 0.00038093282
0001f0 7f 64 cd 3b 88 fb 95 3a 66 f9 ab 3b f3 b3 be 39
       0.0062680836 0.001144276 0.0052482365 0.00036373697
000200 8f ef 7a 3b 2c a6 db 3b 0a f7 e2 3b cc a4 62 3a
       0.003828976 0.006703159 0.006926422 0.00086457725
000210 6a 86 a4 3b d8 48 98 3b 3b 97 c0 ba f6 1c d5 3b
       0.005020906 0.0046473555 -0.0014693508 0.0065036966
000220 7f c8 57 3a 08 67 96 39 e1 e4 8e ba 72 e2 b8 3a
       0.00082314754 0.00028686994 -0.0010901951 0.0014105572
000230 f9 fb a9 3b e9 1c 06 ba 00 4c d1 3b 5e 24 a8 39
       0.005187508 -0.0005116002 0.0063872337 0.00032070553
000240 61 7d 68 ba 5d a0 cb ba 40 65 27 ba 84 17 df ba
       -0.00088687806 -0.0015535463 -0.0006385632 -0.0017020558
000250 67 ec 59 ba 5f 46 f5 b9 2c 6d 13 3b 10 a4 b0 b9
       -0.000831312 -0.00046782472 0.0022495491 -0.00033691572
000260 58 f0 58 3a 1d ab 9c 3a ca 60 ab 3a 15 f8 c0 3a
       0.000827556 0.0011952851 0.001307511 0.0014722372
000270 cc 20 1b ba a6 3d 1f ba 02 82 a6 3a 0c 32 83 3a
       -0.0005917668 -0.0006074555 0.001270354 0.0010009422
000280 76 e1 bc 3a 9b 10 89 3a 68 86 b4 3a 43 75 c7 39
       0.0014410454 0.0010457219 0.0013772966 0.00038043605
000290 2b bc 99 ba e7 d3 19 3a e5 c8 fd b9 7b ce 94 3a
       -0.0011729052 0.0005868063 -0.00048405598 0.001135304
0002a0 f7 8f 35 b8 7f f0 0a 3a e9 94 21 ba 98 7b 8b b9
       -4.328784e-05 0.0005300119 -0.0006163852 -0.0002660423
0002b0 e0 ba 42 39 bb 83 6c ba bb 0b 9a 3a 53 c7 94 39
       0.00018570898 -0.0009022315 0.0011752764 0.00028377268
0002c0 73 1b eb ba 51 2e 3e 39 a0 d9 93 ba a7 4d 69 39
       -0.0017937258 0.00018137066 -0.0011280067 0.0002224954
0002d0 2c 7c 20 ba a5 6d ca 39 bf 03 84 ba 3a b7 c2 b8
       -0.00061220187 0.00038610134 -0.0010071917 -9.2847695e-05
0002e0 3c f1 79 b9 dc 26 c7 38 05 8c e4 ba e2 9f a5 b9
       -0.00023836357 9.4962976e-05 -0.0017436749 -0.00031590374
0002f0 c7 95 19 3a 9f 62 f3 b9 9d 8f 19 ba 00 b0 84 ba
       0.00058588054 -0.0004642205 -0.0005857887 -0.0010123253
000300 73 ef d3 b9 16 b8 33 3a 06 e4 be 37 35 db 49 3a
       -0.0004042346 0.0006855739 2.2755947e-05 0.0007700206
000310 66 04 ef b9 03 46 01 39 76 7c 82 ba bd ad 40 b9
       -0.0004558891 0.0001232848 -0.0009955305 -0.0001837527
000320 51 00 e9 b7 6c 0b ad 39 62 d3 14 3a 8b 6f df 3a
       -2.7775912e-05 0.0003300564 0.00056772504 0.0017046792
000330 57 88 24 b9 84 eb 9f b9 43 dd be ba 8f 6e 30 3a
       -0.0001569105 -0.00030502316 -0.0014561791 0.00067303417
000340 df 7d 86 ba 43 a9 a6 38 15 3f 08 3b ab 38 cb ba
       -0.0010260901 7.947024e-05 0.0020789553 -0.0015504559
000350 0d 71 9d b8 e7 88 a3 b9 c6 6b bb b8 9e 2a 64 3a
       -7.507401e-05 -0.00031191783 -8.936929e-05 0.000870386
000360 da 06 1f 3a 0d 24 ba ba d6 aa 61 3a f3 3f 01 39
       0.00060663896 -0.0014201418 0.00086085254 0.00012326222
000370 63 2c 32 b7 ea 02 da 3a 30 37 b6 3a fe a1 5c ba
       -1.0619961e-05 0.0016632949 0.0013901945 -0.00084164727
000380 cb 68 4e b9 da b4 ae 39 33 4f 9e 38 e8 59 36 39
       -0.0001968473 0.0003332261 7.548779e-05 0.00017390365
000390 86 43 82 ba 55 1e b9 b9 0c 93 09 3a f8 a1 a1 3a
       -0.0009938336 -0.0003530855 0.0005248047 0.0012331596
0003a0 13 d0 11 ba 4e 8a 91 ba 3e 7c f4 b9 b3 e2 a0 3a
       -0.00055623165 -0.001110384 -0.00046631874 0.0012274593
0003b0 5f 39 8b b9 4b d6 fe 39 32 d0 f2 39 c0 ab b1 39
       -0.0002655489 0.00048606316 0.00046312955 0.00033888035
0003c0 f7 f1 8b ba d5 71 00 3b 36 3c 68 b9 20 6b 50 ba
       -0.001067697 0.00195991 -0.00022147674 -0.0007950533
0003d0 63 46 6a 3a a7 f2 a0 b9 68 c7 8b 3a 03 56 4b ba
       0.000893688 -0.00030698368 0.0010664286 -0.0007756652
0003e0 da 3d cb b9 14 54 db 3a f7 d5 2f ba bc 0d 3b 39
       -0.0003876526 0.0016733431 -0.00067076035 0.00017838826
0003f0 d2 20 24 b9 10 cd 72 3a 49 7e 82 ba 82 e3 41 3a
       -0.00015652485 0.0009262124 -0.0009955849 0.0007396267

model/conv_3/Conv2D f4 [4, 3, 3, 16]
000000 10 b8 ea 3b d5 4a ae 3b 7a 68 ca 3a 32 43 a5 3b
       0.0071630552 0.0053189793 0.0015442513 0.0050434107
000010 58 51 f1 3b 9d 50 89 b9 1f 57 fd 3a 39 d2 2d ba
       0.0073644333 -0.00026190738 0.0019328332 -0.0006630752
000020 12 bd 2e 3b d2 fa 92 3b 04 0a ec 3b 7a fb 11 3c
       0.0026662988 0.0044854665 0.0072033424 0.008910054
000030 9e c3 94 3a ec fb 1e b9 95 3d 12 3c 36 d4 1e 3b
       0.0011349802 -0.00015161902 0.008925815 0.0024235374
000040 ca 6e ee 3b a2 c6 8a 3b 2c a7 e1 38 48 58 bf 3b
       0.0072763907 0.0042351047 0.00010759974 0.0058393814
000050 7c 8a 06 3c 01 83 5f ba 4c 9e 73 3b b2 5d a0 3a
       0.008211728 -0.0008526296 0.003717321 0.0012234955
000060 50 44 ed 3a d3 cb 89 3b 2e c6 e0 3b 78 7b ec 3b
       0.0018102024 0.004205206 0.0068595624 0.007216867
000070 c4 d0 71 ba 0d 77 87 3a 6a 72 12 3c 34 0d 8d ba
       -0.0009224529 0.0010335163 0.008938411 -0.0010761381
000080 e4 7c 02 3c dd 4d 7d 3b 44 9d 25 ba e8 c7 b1 3b
       0.007964347 0.0038651146 -0.0006317685 0.005425442
000090 9e 59 15 3c f7 74 9e ba 57 bc fa 3a 51 ff 8e 39
       0.009115605 -0.0012089302 0.0019129616 0.00027274576
0000a0 62 42 43 3b ad 64 06 3b b7 51 00 3c 01 9b 0b 3c
       0.0029794206 0.0020506785 0.007831982 0.0085208425
0000b0 68 4b 4d ba 03 ed 70 b8 14 be 07 3c ab 09 83 b9
       -0.0007831366 -5.7441193e-05 0.008285064 -0.0002499347
0000c0 68 38 a5 3b 3c 0a 45 3b fa d2 05 ba 08 1a 67 3b
       0.0050421245 0.0030065915 -0.00051049853 0.0035263319
0000d0 6f 30 fd 3b 86 12 14 b9 8e a2 30 3b b4 1e 14 b8
       0.007726721 -0.0001412128 0.002695236 -3.5314544e-05
0000e0 b5 e3 60 3b d0 b4 07 3b cf 01 f9 3b 23 11 20 3c
       0.0034315411 0.0020707138 0.0075990926 0.009769711
0000f0 aa 1d eb 39 7a e1 58 3a f8 aa 04 3c 44 f3 70 3a
       0.00044844794 0.0008273345 0.008097403 0.0009191523
000100 a3 f1 e5 3b 32 7d a9 3b 1f c9 1d ba cf c7 dd 3b
       0.0070173307 0.005172395 -0.0006019044 0.006768204
000110 86 3b 03 3c 4d 5a db 3a 44 f3 af 3a f8 0c 82 ba
       0.008009797 0.0016735286 0.0013423939 -0.0009922078
000120 df 94 76 3b e3 ac 39 3b d0 10 0a 3c 7e 3b d4 3b
       0.0037625355 0.0028331808 0.00842686 0.0064768186
000130 ec 40 8a ba 6a 24 d2 3a b0 43 f9 3b 3c 0a b5 3a
       -0.0010547913 0.0016032581 0.007606946 0.0013812254
000140 c6 ab 02 3c 5a 36 2d 3b 86 a1 25 3a 73 5d 8e 3b
       0.007975524 0.00264301 0.00063183194 0.004344636
000150 00 6e 0f 3c a6 ce 95 3a cd 12 37 3b 80 8a 53 ba
       0.008754253 0.0011429384 0.002793479 -0.00080696493
000160 de 5d 1d 3b 22 a7 8a 3b 5d d2 08 3c 10 bc 03 3c
       0.0024012248 0.0042313496 0.008350936 0.008040443
000170 3f 0f 01 3a bc 76 7d ba f9 1a 01 3c 32 dd 25 ba
       0.00049232313 -0.0009668877 0.007879966 -0.0006327211
000180 ab 20 05 3c 1f 76 36 3b e0 8a d0 ba ee ba be 3b
       0.008125464 0.0027841402 -0.0015910529 0.0058206236
000190 1c bf 12 3c 02 32 3a ba c7 3f 3f ba 95 fa 9e b9
       0.008956697 -0.00071027887 -0.00072955753 -0.00030322807
0001a0 4f 26 3d 3b 59 3f 85 3b b2 63 ee 3b e2 29 d3 3b
       0.0028861945 0.0040663895 0.007275068 0.006444202
0001b0 12 4e e1 b9 c7 5f 9e 3a 9c 86 15 3c 92 12 fb ba
       -0.0004297351 0.0012082987 0.009126332 -0.0019155315
0001c0 17 ce 1f 3c 23 c1 9b 3b b6 53 ec 37 ff 93 ca 3b
       0.0097537255 0.0047532483 2.8172373e-05 0.0061821933
0001d0 77 7c cc 3b 01 7d 9f 39 3e 38 b6 3a ef c8 a4 3a
       0.0062404233 0.00030419978 0.001390226 0.001257209
0001e0 bd 76 65 3b d2 1a e5 3a 43 f9 fb 3b d7 9d 16 3c
       0.00350134 0.0017479307 0.0076896264 0.009192905
0001f0 31 51 4c ba cd b2 81 3a ca 90 e0 3b 28 0e b1 3a
       -0.0007794081 0.0009895206 0.0068531977 0.0013508247
000200 14 5c ed 3b e2 6b 33 3b 93 5f 48 39 c6 76 cb 3b
       0.0072436426 0.0027377536 0.0001910909 0.0062092273
000210 4a 8b 0d 3c 76 b7 3d b9 3e 8f c4 3a 80 43 94 37
       0.008639166 -0.00018092789 0.0014996303 1.7674407e-05
000220 f2 0e 9a 3b 13 4d 42 3b c5 01 07 3c d8 b7 e6 3b
       0.0047014887 0.002964799 0.008240168 0.007040959
000230 7c 41 91 ba 8a 48 56 3a 31 cf f9 3b 66 08 af ba
       -0.0011082138 0.00081742613 0.007623576 -0.0013353943
000240 b2 8d f0 3b 2b c7 08 3b cf ea 82 3a 83 9d 9f 3b
       0.00734111 0.0020870666 0.0009988191 0.004871072
000250 b0 ca 1a 3c b3 2e 1a 39 2f 45 af 3a e4 91 b1 b9
       0.0094477385 0.00014703981 0.0013372059 -0.00033868768
000260 a0 58 71 3b 0c 90 30 3b 8f 42 03 3c 6c 12 fb 3b
       0.0036826506 0.0026941327 0.008011474 0.007662108
000270 67 8d 5c 3a 5f 01 e3 39 00 f1 fe 3b 17 47 81 b9
       0.00084134046 0.00043297836 0.0077801943 -0.00024657763
000280 d8 e1 e9 3b 92 ce 62 3b 4c 99 c2 39 77 ac e4 3b
       0.0071375184 0.0034607989 0.0003711678 0.006978567
000290 b6 37 07 3c 00 5e 34 3a c1 1f f6 3a 5f af a4 ba
       0.008253029 0.0006880462 0.0018777774 -0.0012564472
0002a0 a3 20 6b 3b 63 93 82 3b 80 2b 03 3c 38 ec a1 3b
       0.0035877607 0.003984855 0.008005977 0.0049414895
0002b0 b3 e7 18 3a 4c 8c 64 3b 10 cd eb 3b 5c 46 41 3a
       0.0005832866 0.0034873663 0.007196076 0.000737285
0002c0 64 09 f7 3b de cf 97 3b db e8 cc ba c0 2e dc 3b
       0.0075389612 0.004632934 -0.0015633361 0.00671944
0002d0 ec c0 15 3c ab b0 26 39 fb 99 05 3b da c6 ea 39
       0.009140234 0.00015896808 0.002038597 0.00044780114
0002e0 c3 a1 5e 3b fa 8e 3f 3b e4 5c c4 3b 6f bd f3 3b
       0.003397093 0.0029229508 0.0059925187 0.0074383537
0002f0 a8 d3 bc 39 52 5c 01 3b ea 50 17 3c 66 da 91 b9
       0.0003601585 0.0019738865 0.0092356 -0.00027819275
000300 3a 55 e9 3b 42 ec 7b 3b 47 26 d0 3a e6 60 d1 3b
       0.0071207555 0.0038440381 0.0015880548 0.006389725
000310 da 56 01 3c c0 0e a4 39 80 65 01 3b 6b 95 40 3a
       0.007894242 0.00031291507 0.0019744337 0.0007346484
000320 51 e2 45 3b 61 4e 4d 3b d8 3d 11 3c 7c 7d f5 3b
       0.003019471 0.0031327235 0.008864842 0.0074917655
000330 ba 2a 49 ba 38 99 05 ba 46 fc f3 3b 80 82 d1 b9
       -0.0007673908 -0.0005096379 0.007445845 -0.00039960817
000340 50 ef d2 3b 62 29 67 3b 45 03 27 3a cf 8a ae 3b
       0.0064372197 0.0035272469 0.00063710316 0.005326606
000350 dc a8 d4 3b 8a b0 37 3a 10 a0 ee 3a 2f 9f 18 3b
       0.006489856 0.00070072024 0.0018205661 0.002328824
000360 2d 9d 5f 3b 27 d6 27 3b f3 08 11 3c 2a 38 e0 3b
       0.0034120784 0.0025609822 0.008852231 0.006842633
000370 f5 ad 8b 3a e6 a0 ea 3a af 2a 01 3c b2 ff 5c ba
       0.0010656702 0.0017900735 0.007883712 -0.00084304356
000380 13 08 d7 3b 8e 5a 35 3b 5d 70 9f ba 7d e7 d2 3b
       0.006562242 0.0027672383 -0.0012164224 0.006436287
000390 55 14 0a 3c e8 01 d6 3a da 14 99 3a bf fc a3 ba
       0.008427699 0.0016327472 0.0011679188 -0.0012511237
0003a0 26 d0 5d 3b 01 be 80 3b 6e d3 f6 3b 45 93 ff 3b
       0.003384599 0.0039289 0.0075325286 0.0077995383
0003b0 10 53 f3 39 7a 5b 8b 39 15 32 00 3c 37 15 5f ba
       0.00046410458 0.000265803 0.0078244405 -0.0008509936
0003c0 0d 21 bb 3b 1c a4 99 3b 7b 1c ea 39 9c 3a 9d 3b
       0.005710727 0.004688753 0.00044653178 0.0047982465
0003d0 e9 9d 0d 3c 50 d1 a3 39 34 a5 ed 39 0c 94 cd 3a
       0.008643606 0.00031245733 0.00045327249 0.001568438
0003e0 42 e7 4b 3b a2 ff 0e 3b a8 00 f9 3b dc e2 ee 3b
       0.0031113182 0.002181985 0.007598955 0.0072902273
0003f0 a3 58 ed 3a bc 49 33 3b d2 96 1d 3c 7b 6a 64 b9
       0.0018108081 0.0027357182 0.009618478 -0.00021783441

model/conv_3/BiasAdd;model/conv_3/Conv2D;model/conv_3/BiasAdd/ReadVariableOp/resource f4 [4]
000000 2a 4a 23 3c 65 48 23 3c 63 50 23 3c be 4f 23 3c
       0.009966413 0.009965991 0.009967896 0.0099677425
